pytorch_tutorials/cifar_net.pth (torch, 251604 bytes, 10 tensors)

conv1.weight f4 [6, 3, 5, 5]
-0.07691459 0.08564463 0.044974774 -0.0438668 -0.049396798 -0.024002887 0.07473931 0.104122475
0.028885648 -0.04007992 0.019863069 -0.025004394 0.015804827 0.00075583905 0.037786186 -0.017881513
0.000854373 -0.04305891 -0.047879197 0.01824212 -0.006618291 0.09288071 0.052908197 -0.037057444
-0.06036321 0.106434315 0.04352759 0.07362391 -0.023514584 -0.085693255 -0.06546208 0.060851946
-0.096635506 -0.027308874 -0.03225644 -0.03300851 0.08752602 -0.05263643 -0.09323154 0.025645569
-0.052945152 -0.1115479 0.04494059 -0.08265214 -0.020176582 -0.11360444 0.01755248 -0.110939406
-0.09665032 -0.057034824 -0.037556104 0.11330882 -0.10200771 -0.1092628 0.081155896 -0.020120062
-0.11034946 -0.052792676 -0.023252688 -0.022706352 -0.0931079 -0.10236848 0.02340427 -0.10434638
-0.07701585 0.061619595 0.061521873 -0.059096806 0.0313251 -0.010067724 0.11264394 0.08475448
-0.05126331 0.07759984 -0.06096045 0.050267965 -0.04411052 -0.06708273 -0.04617033 -0.0328509
0.016253754 0.030798808 -0.07700768 -0.019246377 -0.05378587 -0.0152462125 -0.10429225 -0.024931215
0.10846245 0.077458024 0.10313851 0.053769574 0.10182838 0.046468675 -0.11081696 -0.013928138
-0.10073678 0.10166724 0.017736554 -0.008790478 0.0057883486 -0.03584054 0.098829836 -0.078600705
0.034133285 -0.021045849 0.073428854 0.10595557 -0.108505875 -0.014793657 -0.10937175 -0.06444813
0.075817674 0.06099944 0.046843663 -0.048259363 -0.025530882 -0.10686569 -0.026207902 -0.017176606
0.060060546 -0.09168405 0.009683296 0.11530678 -0.011185661 -0.012067303 0.026153222 0.089729056
-0.094819725 -0.047176227 -0.08480178 0.06649019 0.0052960664 -0.028291665 0.10908447 0.03546612
-0.056286402 -0.048902787 0.10959624 0.07646172 0.08920829 -0.025185503 -0.0044195354 -0.018975005
-0.09469631 -0.01026272 -0.002559714 0.062246963 -0.10421429 0.045495123 -0.010255761 -0.016817734
-0.11141285 -0.109789334 -0.07824709 0.040296033 0.105854556 0.091465235 -0.09016657 -0.0339322
-0.033075392 -0.04308725 -0.050644055 -0.0927128 0.02885446 0.058386013 -0.028199963 -0.05119247
0.09865004 -0.04696153 -0.1028562 0.04894331 -0.031691343 0.015887082 0.10327917 0.02758047
0.054975614 0.06549734 -0.09111321 -0.058339685 -0.053723436 0.05154787 0.09852871 -0.020318836
0.07559547 -0.08855589 -0.016489096 0.08989884 -0.05631732 -0.017829843 0.098345995 0.074836046
0.051341996 0.08154601 -0.018125087 -0.010028057 0.09871757 0.06758006 -0.10914342 0.027844146
-0.028031051 -0.11317175 0.07008158 0.08688697 0.07610431 0.059329093 -0.03332577 0.102467805
-0.081275046 -0.06479092 -0.042726353 -0.07114364 -0.10547006 -0.042812377 -0.04248281 -0.014688976
0.029046938 -0.0027554408 0.020490691 0.11128236 0.10909191 -0.11276139 0.044513702 -0.0011692792
-0.015746355 0.10275939 0.05401638 -0.026038714 -0.113195725 0.08861439 -0.014624447 -0.026225932
0.05877392 -0.029738061 -0.07385541 0.08338195 -0.037902035 0.047864333 -0.07243375 -0.09632186
-0.016980782 0.09913558 0.0720264 0.0911407 0.09711097 -0.04516337 -0.04001663 -0.1048621
-0.086767115 0.10284604 -0.089316055 -0.09332907 0.07361755 0.07400262 0.027471602 -0.030013062
00000000: 6685 9dbd 7466 af3d 7837 383d acad 33bd
00000010: 4c54 4abd b4a1 c4bc ec10 993d 2a3e d53d
00000020: 98a1 ec3c d82a 24bd e0b7 a23c 04d6 ccbc
00000030: 2079 813c 8023 463a b0c5 1a3d 407c 92bc
00000040: 00f8 5f3a 8a5e 30bd fa1c 44bd 8070 953c
00000050: 40de d8bb 3e38 be3d 44b6 583d 8cc9 17bd
00000060: 6a3f 77bd 3cfa d93d fc49 323d 22c8 963d
00000070: a8a1 c0bc f27f afbd fc10 86bd e43f 793d
00000080: d6e8 c5bd dcb6 dfbc 541f 04bd ee33 07bd
00000090: d840 b33d 4c99 57bd 2df0 bebd a816 d23c
000000a0: 04dd 58bd 3a73 e4bd a013 383d 8645 a9bd
000000b0: 5c49 a5bc 72a9 e8bd 38ca 8f3c 3334 e3bd
000000c0: 9af0 c5bd 599d 69bd 6ed4 19bd 740e e83d
000000d0: 6be9 d0bd 2dc5 dfbd 1035 a63d d4d2 a4bc
000000e0: e6fe e1bd 223d 58bd 6c7c bebc ac02 babc
000000f0: 5baf bebd 91a6 d1bd 50ba bf3c 8eb3 d5bd
00000100: 7cba 9dbd d464 7c3d 5cfe 7b3d 7e0f 72bd
00000110: c04e 003d 18f3 24bc deb1 e63d c293 ad3d
00000120: 7af9 51bd aaec 9e3d aab1 79bd c8e5 4d3d
00000130: 3cad 34bd ac62 89bd 1a1d 3dbd aa8e 06bd
00000140: 9826 853c c84d fc3c 34b6 9dbd 94aa 9dbc
00000150: 934e 5cbd 40cb 79bc 2d97 d5bd 8c3c ccbc
00000160: 9021 de3d 50a2 9e3d 483a d33d 7c3d 5c3d
00000170: 668b d03d f055 3e3d 01f4 e2bd d832 64bc
00000180: 164f cebd ea36 d03d 404c 913c f005 10bc
00000190: 30ac bd3b 88cd 12bd 4c67 ca3d 68f9 a0bd
000001a0: 58cf 0b3d 5868 acbc de61 963d 3cff d83d
000001b0: 5438 debd 1861 72bc 4cfe dfbd 62fd 83bd
000001c0: 4c46 9b3d 8cda 793d 24df 3f3d 9cab 45bd
000001d0: 2426 d1bc 66dc dabd f4b1 d6bc f4b5 8cbc
000001e0: 0c02 763d d9c4 bbbd b0a6 1e3c f625 ec3d
000001f0: 1044 37bc f0b5 45bc 483f d63c dec3 b73d
00000200: d830 c2bd dc3b 41bd 8eac adbd 022c 883d
00000210: a08a ad3b ecc3 e7bc ae67 df3d ec44 113d
00000220: 928c 66bd 4a4e 48bd fe73 e03d f697 9c3d
00000230: d6b2 b63d d451 cebc c0d1 90bb 7871 9bbc
00000240: 24f0 c1bd f824 28bc e0c0 27bb acf6 7e3d
00000250: 4d6e d5bd 1859 3a3d c807 28bc 58c5 89bc
00000260: 6c2c e4bd 3bd9 e0bd 0340 a0bd 740d 253d
00000270: 46ca d83d 2052 bb3d 40a9 b8bd 7efc 0abd
00000280: 107a 07bd 427c 30bd 2470 4fbd 35e0 bdbd
00000290: 3060 ec3c 2c26 6f3d 9c03 e7bc 32af 51bd
000002a0: 0809 ca3d bc5a 40bd 45a6 d2bd c878 483d
000002b0: c8ce 01bd a025 823c 0884 d33d 70f0 e13c
000002c0: 1c2e 613d 7823 863d 9099 babd 98f5 6ebd
000002d0: 1b0d 5cbd dc23 533d 6cc9 c93d b073 a6bc
000002e0: ccd1 9a3d ca5c b5bd 2414 87bc e21c b83d
000002f0: fdac 66bd e40f 92bc a069 c93d a443 993d
00000300: fc4b 523d 9801 a73d 107b 94bc b84c 24bc
00000310: 702c ca3d 6a67 8a3d 9686 dfbd 6819 e43c
00000320: 60a1 e5bc 97c6 e7bd ee86 8f3d ccf1 b13d
00000330: 94dc 9b3d 1003 733d 9a80 08bd a4da d13d
00000340: 8873 a6bd 1ab1 84bd d401 2fbd c2b3 91bd
00000350: b000 d8bd 085c 2fbd 7402 2ebd 08aa 70bc
00000360: d8f3 ed3c a094 34bb 18dc a73c 02e8 e33d
00000370: 946b df3d 72ef e6bd 0054 363d 8042 99ba
00000380: 80fe 80bc 8473 d23d 4840 5d3d 244f d5bc
00000390: 29d3 e7bd 767b b53d 609b 6fbc c4d7 d6bc
000003a0: ecbc 703d 3c9d f3bc 8141 97bd 28c4 aa3d
000003b0: 2a3f 1bbd 640d 443d 2558 94bd 6544 c5bd
000003c0: 481b 8bbc 9807 cb3d 9482 933d faa7 ba3d
000003d0: 1ee2 c63d 3afd 38bd 7ae8 23bd f1c1 d6bd
000003e0: f5b2 b1bd f2a0 d23d 56eb b6bd 5023 bfbd
000003f0: ccc4 963d b08e 973d 200c e13c f4dd f5bc

conv1.bias f4 [6]
-0.014199421 -0.10889237 0.06989184 -0.02634383 -0.06181635 0.039107695
00000000: b0a4 68bc f602 dfbd 7423 8f3d 04cf d7bc
00000010: 2433 7dbd 642f 203d

conv2.weight f4 [16, 6, 5, 5]
-0.018634476 0.017431185 0.047697395 -0.06662956 0.07739705 -0.0128471255 -0.07197509 0.06494506
-0.0711843 0.062333778 -0.0036059842 -0.032302752 -0.02067108 -0.057136416 -0.08056533 0.04957944
-0.0047693253 0.07634911 -0.0046481267 -0.07872302 0.027843297 -0.07330573 -0.03095306 -0.06971234
-0.021643624 0.004220322 0.06390099 0.011196777 -0.0047287494 -0.0050151795 0.015839994 0.010655455
0.06419939 0.022334509 -0.03376067 0.044901505 -0.0010049865 -0.047668684 -0.015319727 0.032874092
0.00799381 0.037688352 0.013717286 -0.017391548 -0.07688463 -0.007836886 -0.0266366 -0.046715092
-0.020530473 0.006092787 0.019846067 -0.02670823 0.042312942 -0.0001673922 0.04165189 0.03945539
0.016363017 0.025455311 -0.033313546 0.009649329 -0.02147577 -0.008969061 0.06892757 0.03391014
0.07812217 -0.0328651 -0.07797801 -0.019280527 -0.045060046 0.035250634 0.071209505 0.019560404
-0.069963634 0.06364031 -0.06908185 0.0069710985 -0.02821897 -0.019912332 -0.019825675 0.030276
0.04213559 0.020389095 0.008797631 -0.040263828 0.025175795 0.07214971 0.057696313 0.040940598
-0.005525522 0.049194828 0.07667485 0.05451052 0.061665326 0.009701073 -0.008855663 0.076949134
-0.075629756 -0.076174304 -0.043735564 -0.053913407 0.055944666 0.010979056 -0.045394283 0.0074419454
0.07592066 -0.03393338 0.08141813 -0.014824465 0.041324347 -0.046087015 -0.07268956 0.0046597123
-0.06467376 0.01129663 -0.050501212 -0.021438062 -0.009747431 0.028215118 0.02444689 -0.03920126
-0.024083424 0.0075416714 -0.003353402 -0.028575163 -0.056154244 -0.0031356066 -0.017999694 0.06714569
-0.043585688 -0.07084717 -0.06299347 0.019332409 -0.042900916 -0.024706565 -0.03028541 0.00923603
-0.0022139177 0.009349458 0.011957593 0.027553268 0.04552324 -0.029316712 0.010306954 -0.043250255
0.014426768 -0.029386356 -0.04071716 -0.04780975 0.017595105 -0.071361214 0.0011871606 0.0044420958
-0.00828968 0.027121052 0.072950915 0.06941061 -0.003919795 0.0054043606 -0.05307489 -0.022292264
-0.07334674 -0.031685773 0.014121264 0.07160498 0.014047578 -0.015489712 -0.04408594 -0.0015917495
-0.005781442 -0.046573386 -0.06454155 -0.003139861 -0.027970672 -0.031332657 0.06021586 0.06475094
0.020526402 -0.05297769 0.06955591 0.053712666 0.009549946 0.04025559 -0.03726523 0.014078356
-0.028039914 -0.05279067 -0.03299031 0.018105023 -0.060587455 -0.05854463 -0.025411293 -0.04861079
-0.0059458315 -0.044857066 -0.02244541 -0.037266582 0.059865266 -0.03338497 0.06374997 -0.0353754
-0.06698516 -0.057016455 -0.06367115 -0.03490378 -0.058999293 0.06520207 0.05866708 -0.0059000924
-0.07319943 -0.06378355 -0.034063965 -0.07038969 0.032260075 -0.03631661 -0.06414968 0.06923719
0.07000004 -0.05755891 0.06126553 0.055244297 0.031462207 0.011720635 0.06377794 -0.05064908
0.0601774 -0.033667736 0.0180232 0.076820195 -0.006023437 -0.0215757 -0.04854939 0.019268528
-0.049258128 -0.00068935007 -0.004561946 -0.07217745 -0.0074271634 -0.060452063 -0.056234203 0.016689241
0.06534229 0.0696968 0.022198886 -0.02370385 -0.035430484 0.04892105 0.05107957 0.0139081925
-0.02523031 -0.012785442 0.03410539 0.07926439 -0.01601109 -0.011095926 0.072990075 -0.01692772
00000000: 54a7 98bc d8cb 8e3c 585e 433d 1475 88bd
00000010: 5882 9e3d c07c 52bc ad67 93bd ea01 853d
00000020: 13c9 91bd b451 7f3d 6052 6cbb e44f 04bd
00000030: 6656 a9bc e007 6abd 70ff a4bd d013 4b3d
00000040: 0048 9cbb ec5c 9c3d 504f 98bb 8939 a1bd
00000050: a017 e43c 5121 96bd 4691 fdbc 58c5 8ebd
00000060: f84d b1bc a04a 8a3b 86de 823d b072 373c
00000070: a0f3 9abb 6056 a4bb e0c2 813c 3894 2e3c
00000080: f87a 833d dcf6 b63c a148 0abd a4ea 373d
00000090: c0b9 83ba 3d40 43bd 98ff 7abc fca6 063d
000000a0: 78f8 023c 1a5f 1a3d 78be 603c b878 8ebc
000000b0: b075 9dbd 4866 00bc 0035 dabc 5358 3fbd
000000c0: 862f a8bc 00a6 c73b 3894 a23c 38cb dabc
000000d0: 5650 2d3d 0086 2fb9 2c9b 2a3d fa9b 213d
000000e0: bc0b 863c a887 d03c c973 08bd 3818 1e3c
000000f0: f4ed afbc f8f2 12bc e629 8d3d 5ce5 0a3d
00000100: 84fe 9f3d 8e9d 06bd efb2 9fbd 32f2 9dbc
00000110: e290 38bd f862 103d 4ad6 913d 243d a03c
00000120: 1849 8fbd da55 823d c97a 8dbd d06d e43b
00000130: 782b e7bc 301f a3bc 7469 a2bc 6005 f83c
00000140: 5e96 2c3d 0807 a73c f023 103c afeb 24bd
00000150: 783d ce3c 3ac3 933d f852 6c3d 54b1 273d
00000160: 700f b5bb 8480 493d b407 9d3d 6c46 5f3d
00000170: c894 7c3d 40f1 1e3c 5817 11bc 8297 9d3d
00000180: c6e3 9abd 4601 9cbd 1024 33bd 4ed4 5cbd
00000190: 3c26 653d 80e1 333c 5bef 39bd 90db f33b
000001a0: 4a7c 9b3d bafd 0abd 8cbe a63d 50e2 72bc
000001b0: b843 293d bdc5 3cbd 44de 94bd 80b0 983b
000001c0: ad73 84bd 8015 393c 5cda 4ebd e09e afbc
000001d0: b0b3 1fbc 6423 e73c d844 c83c 8091 20bd
000001e0: 9a4a c5bc 2020 f73b c0c4 5bbb 7616 eabc
000001f0: fe01 66bd c07e 4dbb 1874 93bc ae83 893d
00000200: e886 32bd 5218 91bd b802 81bd 005f 9e3c
00000210: dfb8 2fbd 6c65 cabc 1c19 f8bc b852 173c
00000220: 6017 11bb 782e 193c c8e9 433c 64b7 e13c
00000230: 9476 3a3d 9a29 f0bc 80de 283c 2e27 31bd
00000240: 405e 6c3c a8bb f0bc 09c7 26bd 28d4 43bd
00000250: 9c23 903c d425 92bd 809a 9b3a 008f 913b
00000260: 70d1 07bc f82c de3c 4a67 953d 2627 8e3d
00000270: a071 80bb 1017 b13b 0e65 59bd 449e b6bc
00000280: d136 96bd f1c8 01bd e05c 673c a2a5 923d
00000290: d027 663c 90c8 7dbc 7593 34bd 40a2 d0ba
000002a0: 4072 bdbb bcc3 3ebd 5c2e 84bd 20c6 4dbb
000002b0: c022 e5bc ac56 00bd e8a4 763d 249c 843d
000002c0: fc26 a83c 22ff 58bd 5473 8e3d d001 5c3d
000002d0: 6077 1c3c 0ce3 243d 6da3 18bd e8a8 663c
000002e0: f6b3 e5bc 083b 58bd d920 07bd fc50 943c
000002f0: 8d2a 78bd 7ecc 6fbd 582b d0bc 1c1c 47bd
00000300: 40d5 c2bb 0bbc 37bd 70df b7bc d8a4 18bd
00000310: 4835 753d aebe 08bd 588f 823d cce5 10bd
00000320: 842f 89bd 168a 69bd 0566 82bd 44f7 0ebd
00000330: 3ea9 71bd aa88 853d e44c 703d 9055 c1bb
00000340: 95e9 95bd f3a0 82bd a886 0bbd 7828 90bd
00000350: 2423 043d bac0 14bd e860 83bd 3acc 8d3d
00000360: 2e5c 8f3d e4c2 6bbd 90f1 7a3d d847 623d
00000370: 84de 003d e807 403c 029e 823d 6975 4fbd
00000380: 947c 763d 2ee7 09bd 64a5 933c e853 9d3d
00000390: 4060 c5bb 86bf b0bc badb 46bd 08d9 9d3c
000003a0: e4c2 49bd 80b5 34ba 607c 95bb c5d1 93bd
000003b0: 905f f3bb 959c 77bd d655 66bd e0b7 883c
000003c0: 2ed2 853d 32bd 8e3d 70da b53c 942e c2bc
000003d0: 8e1f 11bd 7061 483d d038 513d 30df 633c
000003e0: ccaf cebc 087a 51bc 18b2 0b3d 5e55 a23d
000003f0: b029 83bc b0cb 35bc d27b 953d 00ac 8abc

conv2.bias f4 [16]
-0.017096467 0.019385837 0.045922726 0.02102404 0.0016808882 0.0235193 0.06450611 0.02308175
0.022762649 0.037472382 -0.0031508505 0.060366318 0.05364956 -0.016137972 -0.019852959 -0.006652124
00000000: e40d 8cbc 0ccf 9e3c 7819 3c3d 9c3a ac3c
00000010: 4051 dc3a 8cab c03c c81b 843d f015 bd3c
00000020: bc78 ba3c a47c 193d 807e 4ebb ac42 773d
00000030: a4bf 5b3d c833 84bc aca2 a2bc 10fa d9bb

fc1.weight f4 [120, 400]
0.0146336965 0.0041977987 0.04084686 -0.020313883 0.0065794103 -0.023659134 -0.019774294 -0.014165241
0.044084128 -0.016899474 0.042404067 0.0028557666 0.03241344 -0.0068839565 -0.045661617 -0.04593885
0.047901373 0.02816258 -0.040166814 0.047614526 0.008459937 0.00094338134 -0.04556947 -0.005245663
-0.04600451 0.042179946 -0.041148692 -0.037314285 -0.004813187 -0.015213013 -0.008229721 -0.015509509
-0.030730402 -0.0077685528 -0.00111828 -0.04637019 0.024184782 0.038520765 -0.039039277 -0.029381264
-0.013702504 -0.0076750517 -0.0101951435 -0.0018965527 -0.024175828 -0.023305655 0.041137617 0.028255846
0.02346367 -0.015172552 -0.0014020577 0.01219967 -0.021663709 -0.018307954 -0.025318742 -0.0039411895
-0.019893063 0.025028456 -0.03015846 -0.04024117 0.0046054125 0.020367172 0.020113435 0.00408601
-0.03586626 0.038697045 -0.0031203553 -0.017315786 -0.038320035 -0.025586981 0.017914277 -0.03133096
-0.0071542077 -0.019232666 -0.049126655 -0.038687885 -0.01826983 -0.040220965 0.016265731 -0.029029358
0.0101207495 -0.023107057 0.0060283355 -0.017987471 -0.043459486 -0.021857424 0.022160355 0.025373224
0.021005277 0.009833951 0.03698561 0.010801107 0.009257831 0.003340967 -0.0402852 0.024270047
-0.015636276 0.029874604 0.04323746 0.04358353 0.04652605 0.010942973 -0.026434857 0.012953315
0.036124613 0.0401694 -0.04166429 0.030999918 -0.029378528 0.047153372 -0.03647843 -0.017890465
0.0038679242 0.0049604177 -0.009701431 -0.0068872645 -0.009731721 0.031933513 0.0136328675 0.042313922
0.012467105 0.01750872 0.038039457 0.03809456 -0.0042192824 0.015088651 0.027536485 0.029391471
-0.035955667 0.0041388683 -0.0061197653 -0.023895001 0.029825728 -0.016148292 -0.03098151 -0.038947027
0.036691647 -0.03397526 0.045245025 0.044530224 0.0028323159 0.019336794 0.030922685 0.021882255
0.048762973 0.02586947 -0.038939632 -0.032916203 -0.01852746 -0.0047357082 0.014783766 -7.773191e-05
0.00037005544 0.007224243 0.009045642 -0.024225777 0.021146614 0.005656302 0.01159047 0.023750369
0.037216853 -0.024221206 -0.016198479 -0.01950022 -0.01664967 0.031685356 0.0153623335 0.013943534
0.020845804 0.003522925 -0.024188608 -0.03993497 -0.02492783 0.0457824 0.02912217 0.00011367351
-0.03645749 -0.02371459 -0.030356461 -0.024383074 0.0012334995 0.0054162256 -0.045233358 0.0009258017
-0.04549978 -0.02997054 0.048002515 -0.014473118 0.013298895 0.019075427 -0.016625375 0.017335426
0.04376548 0.002893813 0.042751897 -0.013715278 0.024947595 -0.012290992 0.01651654 0.019459639
0.015574787 0.025138084 -0.025557715 -0.03515668 -0.03091914 0.008059405 -0.0198771 0.029530484
0.022126947 -0.031573683 0.026913252 -0.017533064 -0.014318474 0.004253678 -0.018725742 0.029086445
-0.048400737 0.022095572 0.010486357 -0.025578504 0.0059167147 0.0014161542 -0.037551116 -0.03989212
-0.009978719 -0.030514026 -0.02608676 -0.03515191 0.009093981 -0.03789829 -0.030190611 -0.020028366
-0.024989653 0.033677403 -0.04246537 -0.03653174 0.042558152 0.03419539 -0.029344542 0.04141954
-0.011484772 -0.041007333 0.0067117587 -0.03559689 -0.041856676 0.033408288 -0.01827211 -0.038292192
-0.049731743 -0.023889566 0.02784687 0.0041574016 0.036668185 0.01745246 -0.020779246 -0.0383148
00000000: 2cc2 6f3c b08d 893b 094f 273d 4d69 a6bc
00000010: 1898 d73b cdd0 c1bc b3fd a1bc 5415 68bc
00000020: 8f91 343d c470 8abc e3af 2d3d d027 3b3b
00000030: f5c3 043d d092 e1bb ad07 3bbd 602a 3cbd
00000040: 3b34 443d 36b5 e63c f585 24bd 7307 433d
00000050: 8c9b 0a3c 404d 773a 0da7 3abd d0e3 abbb
00000060: 3a6f 3cbd e1c4 2c3d 888b 28bd ddd6 18bd
00000070: f0b7 9dbb 0040 79bc f4d5 06bc 981b 7ebc
00000080: 53be fbbc 588f febb 4093 92ba abee 3dbd
00000090: 2a1f c63c f3c7 1d3d a6e7 1fbd fab0 f0bc
000000a0: 7880 60bc 007f fbbb 8809 27bc c095 f8ba
000000b0: 630c c6bc 80eb bebc eb7f 283d ce78 e73c
000000c0: e236 c03c 4c96 78bc 40c5 b7ba 20e1 473c
000000d0: 1778 b1bc 90fa 95bc 4069 cfbc 1825 81bb
000000e0: c7f6 a2bc 7a08 cd3c e00e f7bc edd3 24bd
000000f0: 00e9 963b 0ed9 a63c eec4 a43c f0e3 853b
00000100: 80e8 12bd cb80 1e3d e07e 4cbb d6d9 8dbc
00000110: 78f5 1cbd ca9b d1bc f6c0 923c e554 00bd
00000120: d86d eabb d38d 9dbc 0839 49bd 3077 1ebd
00000130: 9caa 95bc bdbe 24bd b63f 853c face edbc
00000140: 80d1 253c 034b bdbc 5889 c53b 765a 93bc
00000150: 9302 32bd 570e b3bc a289 b53c 82db cf3c
00000160: 4213 ac3c 941e 213c 397e 173d 20f7 303c
00000170: 28ae 173c 20f4 5a3b 1802 25bd fad1 c63c
00000180: a617 80bc 96bb f43c c319 313d a584 323d
00000190: 1992 3e3d 284a 333c ea8d d8bc 243a 543c
000001a0: 67f7 133d ab88 243d 2da8 2abd 8af3 fd3c
000001b0: 3dab f0bc e523 413d 686a 15bd 068f 92bc
000001c0: 007d 7d3b 008b a23b c0f2 1ebc 90ae e1bb
000001d0: cc71 1fbc b7cc 023d 645c 5f3c 5d51 2d3d
000001e0: d442 4c3c 726e 8f3c 43cf 1b3d 0b09 1c3d
000001f0: e841 8abb 6436 773c 3294 e13c 62c6 f03c
00000200: 4046 13bd 589f 873b 5088 c8bb 73bf c3bc
00000210: 1655 f43c 6c49 84bc f0cc fdbc eb86 1fbd
00000220: fb49 163d a429 0bbd d952 393d 5365 363d
00000230: 609e 393b 3268 9e3c 9251 fd3c 6a42 b33c
00000240: afbb 473d 36ec d33c 2a7f 1fbd 24d3 06bd
00000250: e6c6 97bc 002e 9bbb 9c37 723c 0004 a3b8
00000260: 0004 c239 58b9 ec3b 2c34 143c 2375 c6bc
00000270: aa3b ad3c 8058 b93b f4e5 3d3c 2290 c23c
00000280: b370 183d 8d6b c6bc acb2 84bc edbe 9fbc
00000290: e464 88bc 81c8 013d 4cb2 7b3c 6c73 643c
000002a0: d2c4 aa3c e0e0 663b 3027 c6bc da92 23bd
000002b0: 7335 ccbc 5386 3b3d 9e91 ee3c 0064 ee38
000002c0: 7354 15bd 1a45 c2bc 1dae f8bc 03bf c7bc
000002d0: 60ad a13a 987a b13b 9d46 39bd 80b1 723a
000002e0: fa5d 3abd c784 f5bc 499e 443d a820 6dbc
000002f0: 9ce3 593c 1244 9c3c f031 88bc 0603 8e3c
00000300: 6f43 333d 20a6 3d3b 9d1c 2f3d 0cb6 60bc
00000310: e65e cc3c 2860 49bc b24d 873c d269 9f3c
00000320: 642d 7f3c 62ee cd3c 6a5e d1bc 7300 10bd
00000330: 234a fdbc 980b 043c 4dd5 a2bc eae9 f13c
00000340: 9243 b53c 6853 01bd 2e79 dc3c 80a1 8fbc
00000350: 0898 6abc 7062 8b3b ba66 99bc b246 ee3c
00000360: da3f 46bd c601 b53c f8ce 2b3c 038a d1bc
00000370: 00e1 c13b 409e b93a 33cf 19bd eb65 23bd
00000380: c87d 23bc 8df8 f9bc e7b3 d5bc 73fb 0fbd
00000390: ecfe 143c 3d3b 1bbd 4d52 f7bc 8712 a4bc
000003a0: 1ab7 ccbc 51f1 093d 2bf0 2dbd 4ea2 15bd
000003b0: 7551 2e3d 7710 0c3d f763 f0bc 89a7 293d
000003c0: a02a 3cbc 4ef7 27bd 50ee db3b 0bce 11bd
000003d0: e871 2bbd 21d7 083d 64af 95bc 46d8 1cbd
000003e0: 83b3 4bbd 0db4 c3bc 1e1f e43c d03a 883b
000003f0: 6131 163d 76f8 8e3c 3d39 aabc fbef 1cbd

fc1.bias f4 [120]
-0.04994772 -0.031676196 0.048780415 0.044753823 0.013756562 0.04877751 -0.012886815 -0.014489971
0.034695107 0.0052446947 0.016996358 -0.04232514 0.013451818 -0.004930835 0.015043881 0.0324835
0.0061230175 0.0015651472 -0.04461273 -0.005493421 0.041432757 -0.030095363 0.038890485 -0.018861461
-0.020153565 0.0297104 0.0028428733 0.008843403 0.034269895 -0.019642198 -0.02623989 0.022787448
0.014492277 0.025164459 0.033000153 -0.045276105 -0.029939169 -0.024639506 0.0297545 0.0075845346
-0.048055448 -0.016115345 -0.011549108 0.0046984255 -0.022531688 0.024610434 0.047277074 -0.005123973
-0.01831811 0.024465512 0.015020926 0.04360505 -0.04835288 0.028055105 -0.038555898 0.04870596
0.021752115 0.021486927 0.0049012825 -0.04676957 -0.047352206 -0.0015754327 -0.043555357 0.006190907
0.024062153 -0.0113625415 0.03596087 -0.049795665 -0.011824816 0.019187395 0.034242813 -0.04771293
0.041444924 -0.03943631 0.023956623 0.03878856 -0.013031207 -0.00776561 0.012452133 0.049303625
-0.034046605 0.03270754 -0.033212893 0.032267954 0.007997297 -0.0066399053 0.016024787 0.0006471686
0.03878079 0.018637408 -0.016637899 0.037088577 -0.027429134 0.041699115 0.045460243 0.0049283393
-0.032938913 0.031055968 -0.0023159087 -0.0024119131 0.0033678524 -0.021618826 -0.027817732 -0.03381303
-0.012657374 0.012869392 -0.018648576 -0.0041606613 0.01673622 0.026015613 0.010677569 -0.010606445
0.021773908 0.044435393 -0.009027325 0.0008279756 0.04119664 -0.036911838 -0.041674744 -0.048864942
00000000: fb95 4cbd e6be 01bd f9cd 473d c94f 373d
00000010: 3463 613c edca 473d 3823 53bc 5867 6dbc
00000020: 751c 0e3d b0db ab3b f23b 8b3c 205d 2dbd
00000030: 0465 5c3c d892 a1bb 9c7a 763c 6b0d 053d
00000040: 98a3 c83b a025 cd3a d7bb 36bd 2802 b4bb
00000050: 65b5 293d 8d8a f6bc a14b 1f3d 5a83 9abc
00000060: 1719 a5bc 3a63 f33c 804f 3a3b ece3 103c
00000070: 975e 0c3d ade8 a0bc 0af5 d6bc beac ba3c
00000080: 0471 6d3c b225 ce3c 2b2b 073d 7073 39bd
00000090: fd42 f5bc cad8 c9bc b6bf f33c b087 f83b
000000a0: cad5 44bd 5404 84bc 7838 3dbc 40f5 993b
000000b0: 6094 b8bc d29b c93c 9ba5 413d 00e7 a7bb
000000c0: dc0f 96bc e66b c83c 541a 763c 359b 323d
000000d0: ab0d 46bd d2d3 e53c caec 1dbd e77f 473d
000000e0: 7e31 b23c 5a05 b03c f09a a03b 7391 3fbd
000000f0: 63f4 41bd c07e ceba 1a67 32bd 18dd ca3b
00000100: fe1d c53c f429 3abc b54b 133d 8af6 4bbd
00000110: e0bc 41bc e22e 9d3c 3142 0c3d a26e 43bd
00000120: 27c2 293d f887 21bd ae40 c43c c1e0 1e3d
00000130: d880 55bc a876 febb 0804 4c3c 99f2 493d
00000140: 7474 0bbd 57f8 053d 3e0a 08bd 672b 043d
00000150: 1807 033c 9093 d9bb 6a46 833c c0a6 293a
00000160: 9bd8 1e3d 7aad 983c 344c 88bc 31ea 173d
00000170: 10b3 e0bc b1cc 2a3d 8534 3a3d e87d a13b
00000180: f4ea 06bd 1669 fe3c 80c6 17bb 3011 1ebb
00000190: 30b7 5c3b f719 b1bc 03e2 e3bc 887f 0abd
000001a0: e060 4fbc 24da 523c e6c4 98bc 2856 88bb
000001b0: 661a 893c b21e d53c f8f0 2e3c a8c6 2dbc
000001c0: 325f b23c e301 363d 58e7 13bc 800c 593a
000001d0: cfbd 283d de30 17bd 23b3 2abd 9b26 48bd

fc2.weight f4 [84, 120]
-0.08524496 -0.06139478 -0.02721098 -0.025021218 -0.039293632 0.012563221 0.017156102 -0.02276919
-0.01776614 -0.055940133 0.014278047 0.026417382 -0.014522269 0.039401412 -0.04865046 -0.0736579
-0.010085076 -0.038920186 -0.08737511 0.07314351 0.05450344 0.021227762 0.04775144 0.08119723
0.08728771 -0.030941185 -0.016865112 -0.025474578 0.0027837828 0.010347962 -0.08239179 0.065852925
0.06772205 -0.053860955 0.05322832 -0.08699915 -0.0762522 -0.07740052 -0.054345064 0.07538235
-0.014773592 0.030341163 -0.0757458 0.016021758 -0.06418142 0.08555396 0.035770983 0.05058025
0.058336794 -0.079086065 -0.058720212 0.034667224 0.09067026 -0.08075392 0.02984818 0.07563211
-0.06369273 0.04476741 0.006525114 0.08674805 -0.0030935258 -0.079732955 -0.016535595 0.08648841
-0.091279864 0.005417347 -0.013213918 0.0078041106 0.035152793 -0.07572154 -0.040846705 -0.048561726
-0.020924985 0.001620084 -0.030839175 -0.05219586 -0.03453018 -0.015890442 -0.029240157 -0.0007933825
0.05185771 0.00031243265 0.020058386 -0.014785215 -0.06328428 0.04129468 -0.0032303259 -0.056101307
0.03379491 0.07528402 0.02183611 0.029355936 -0.011220001 -0.058419406 0.026994884 -0.077462934
0.042668536 -0.06772971 -0.053139284 0.08113444 0.026244953 -0.08280384 0.08311102 0.047741637
-0.02296307 -0.06983809 -0.027316473 0.017908722 -0.084011175 0.023334295 -0.033423822 -0.062059067
0.0050687417 -0.007712461 0.07350932 -0.06919716 0.03997062 -0.07173211 0.06318949 0.04714881
-0.0011895746 -0.0326652 0.021678373 0.03615944 0.057399094 -0.08206116 0.063445255 -0.006701313
-0.06924932 -0.042093303 0.040308118 -0.035777006 0.003333792 0.08731778 0.040588573 -0.022701837
0.047909632 0.019442827 -0.07978034 -0.04310712 0.011692457 0.027085982 0.08528806 0.00885953
0.050380602 -0.0716063 0.035757914 -0.009971812 0.04796812 0.05140139 -0.011010148 0.015607774
0.089740366 -0.033366278 0.033138663 0.03124597 -0.07222745 -0.013571776 0.033148393 0.06302862
0.06842345 0.06437042 -0.08366233 0.08090246 -0.05303105 -0.067932 -0.043897692 -0.029912628
-0.01612518 -0.0076443404 0.012285985 -0.055901565 -0.06987739 0.085651755 -0.08483256 -0.07040493
0.03285204 0.0060427636 0.077225745 -0.07493792 0.01119592 -0.028578006 -0.03756676 0.0038815513
-0.08808186 0.08628622 -0.04348124 -0.06988122 0.02298636 -0.0077159405 0.038586885 0.014230721
-0.07657696 0.05209467 -0.010692082 0.0644193 0.0706763 0.00048688054 -0.025737122 -0.049502376
0.08501446 0.0886291 0.02847384 0.049456 -0.057066403 0.06853546 -0.012473047 -0.039824925
0.040450513 -0.043420278 -0.028917935 0.016282246 -0.012151152 0.07674526 0.05363919 -0.010919303
0.07105869 0.020656481 -0.08895858 0.030548006 -0.058788065 0.00779213 -0.017720915 -0.03446444
0.08027041 -0.07690916 0.05405733 0.007806167 -0.030391816 -0.07896148 -0.04385376 -0.037845366
-0.059924893 -0.038231328 -0.014937624 0.08938715 0.073001295 -0.046167668 -0.06391456 0.08162649
-0.040059485 0.020195492 0.005172007 0.07913582 0.045070037 0.031007633 0.011958875 0.08466418
-0.05380292 0.03788306 -0.040912677 0.05580166 -0.07525729 0.032119043 -0.06589062 0.07322569
00000000: e994 aebd 1879 7bbd 90e9 debc 4cf9 ccbc
00000010: 5cf2 20bd f8d5 4d3c f48a 8c3c 7486 babc
00000020: 4c8a 91bc 7b21 65bd 78ee 693c 4469 d83c
00000030: d0ee 6dbc 6063 213d b445 47bd f4d9 96bd
00000040: e03b 25bc c66a 1fbd b9f1 b2bd 44cc 953d
00000050: 003f 5f3d d8e5 ad3c 0497 433d bc4a a63d
00000060: e6c3 b23d 5e78 fdbc b428 8abc 10b0 d0bc
00000070: 2070 363b 808a 293c 07bd a8bd e6dd 863d
00000080: dcb1 8a3d 4e9d 5cbd f005 5a3d 9c2c b2bd
00000090: 1d2a 9cbd 2a84 9ebd ee98 5ebd 1062 9a3d
000000a0: f00c 72bc 088e f83c 9d20 9bbd 1040 833c
000000b0: 8c71 83bd ea36 af3d 9884 123d 3c2d 4f3d
000000c0: 90f2 6e3d e0f7 a1bd 9b84 70bd 38ff 0d3d
000000d0: 54b1 b93d 5062 a5bd 2c84 f43c 02e5 9a3d
000000e0: 5671 82bd 085e 373d a0d0 d53b f6a8 b13d
000000f0: c0bc 4abb 084b a3bd a875 87bc d620 b13d
00000100: f0f0 babd 0084 b13b 307f 58bc a0b9 ff3b
00000110: 60fc 0f3d e513 9bbd e04e 27bd a9e8 46bd
00000120: e06a abbc 0059 d43a 70a2 fcbc 53cb 55bd
00000130: 856f 0dbd ac2c 82bc 0e89 efbc 00fb 4fba
00000140: c068 543d 00ce a339 7c51 a43c b03d 72bc
00000150: 309b 81bd 9c24 293d e0b3 53bb 7cca 65bd
00000160: 886c 0a3d 822e 9a3d a4e1 b23c dc7b f03c
00000170: 18d4 37bc 3049 6fbd 6024 dd3c e3a4 9ebd
00000180: 34c5 2e3d e0b5 8abd 94a8 59bd d029 a63d
00000190: a8ff d63c 0f95 a9bd 1c36 aa3d bc8c 433d
000001a0: 0c1d bcbc 4607 8fbd ccc6 dfbc 50b5 923c
000001b0: 0d0e acbd 9027 bf3c 6be7 08bd a631 7ebd
000001c0: b017 a63b d0b8 fcbb 0e8c 963d 3eb7 8dbd
000001d0: 3cb8 233d 49e8 92bd 7e69 813d 1c1f 413d
000001e0: 80eb 9bba f2cb 05bd d896 b13c ec1b 143d
000001f0: 501b 6b3d ae0f a8bd 96ef 813d b096 dbbb
00000200: 96d2 8dbd 076a 2cbd 201a 253d e98a 12bd
00000210: c07b 5a3b aad3 b23d 3440 263d 34f9 b9bc
00000220: e43c 443d 9046 9f3c e063 a3bd 1791 30bd
00000230: b891 3f3c 6ce3 dd3c 82ab ae3d 9027 113c
00000240: e45b 4e3d 53a6 92bd e476 123d d060 23bc
00000250: 387a 443d 448a 523d e863 34bc c0b7 7f3c
00000260: ccc9 b73d 14ab 08bd 68bc 073d 8cf7 ff3c
00000270: fceb 93bd 285c 5ebc 9cc6 073d 2615 813d
00000280: 9821 8c3d a4d4 833d 2857 abbd 30b0 a53d
00000290: 1637 59bd ef1f 8bbd 11ce 33bd 540b f5bc
000002a0: f418 84bc 607d fabb 284b 493c 0af9 64bd
000002b0: e11b 8fbd 306a af3d b1bc adbd 7630 90bd
000002c0: dc8f 063d 6002 c63b 8828 9e3d 0d79 99bd
000002d0: 186f 373c 6c1c eabc 9adf 19bd a061 7e3b
000002e0: 4364 b4bd d4b6 b03d 6219 32bd e31d 8fbd
000002f0: e44d bc3c 00d6 fcbb 480d 1e3d f827 693c
00000300: 62d4 9cbd 3861 553d d82d 2fbc 44ee 833d
00000310: bcbe 903d 0044 ff39 a8d6 d2bc 01c3 4abd
00000320: 101c ae3d 2c83 b53d f841 e93c 6092 4a3d
00000330: 76be 69bd 525c 8c3d c05b 4cbc 761f 23bd
00000340: 70af 253d 76d9 31bd 4ee5 ecbc 5862 853c
00000350: a015 47bc 9e2c 9d3d c4b4 5b3d e0e6 32bc
00000360: 3887 913d c837 a93c ea2f b6bd d03f fa3c
00000370: c1cb 70bd 2055 ff3b 742b 91bc 962a 0dbd
00000380: d064 a43d 8d82 9dbd 386b 5d3d e0ca ff3b
00000390: 42f8 f8bc 8eb6 a1bd 00a0 33bd be03 1bbd
000003a0: ce73 75bd 7498 1cbd f0bc 74bc 9c10 b73d
000003b0: b481 953d 4f1a 3dbd a3e5 82bd ca2b a73d
000003c0: 6a15 24bd 0471 a53c f079 a93b f611 a23d
000003d0: 5c9b 383d b803 fe3c 28ef 433c 6a64 ad3d
000003e0: 7360 5cbd 442b 1b3d 0d94 27bd 4890 643d
000003f0: 7e20 9abd 428f 033d a9f1 86bd 5af7 953d

fc2.bias f4 [84]
0.005404614 -0.04538571 -0.011676863 0.048394606 0.06872298 -0.035811067 -0.06729615 0.010008499
0.049359843 -0.08885157 0.07223043 -0.014248811 0.07613969 0.08242054 0.022578105 -0.05778572
-0.010165162 -0.082605086 0.005183801 -0.043120254 -0.08259171 0.05674787 0.05121921 0.08949871
0.0472731 -0.06451468 0.006048009 0.017101794 -0.02579663 0.08517152 0.08432868 -0.05906616
0.028835088 -0.015060052 -0.042327207 0.055186734 0.047903016 -0.052968923 -0.017025888 0.037806943
-0.044013873 -0.07568848 -0.058599487 -0.049288966 0.010819346 0.0376765 -0.08820335 0.0056725442
0.04778467 -0.0022012144 0.0676339 0.039274737 -0.06331832 -0.031389177 0.08106856 -1.2218952e-06
0.06629026 0.081337765 0.036649153 -0.038179103 -0.059854627 -0.025329068 -0.02068735 0.08509967
0.07121092 -0.067249 -0.06375015 0.03253875 0.08377984 -0.009919569 0.010502063 -0.0050787106
0.04056588 -0.05667795 0.05535227 -0.077153556 -0.0086853355 0.038943604 0.080451444 -0.032555703
0.057037264 0.0272341 -0.0475685 -0.08103151
00000000: 3019 b13b 5ee6 39bd 5050 3fbc 6c39 463d
00000010: a2be 8c3d a0ae 12bd 90d2 89bd b0fa 233c
00000020: 8c2d 4a3d d0f7 b5bd 8ced 933d d873 69bc
00000030: 20ef 9b3d 1acc a83d b8f5 b83c b8b0 6cbd
00000040: c88b 26bc db2c a9bd e0dc a93b dd9e 30bd
00000050: d825 a9bd 7470 683d 3ccb 513d 1a4b b73d
00000060: 70a1 413d 4620 84bd 602e c63b 1019 8c3c
00000070: 7453 d3bc 686e ae3d 84b4 ac3d 5cef 71bd
00000080: 9037 ec3c 70be 76bc 4b5f 2dbd 7c0b 623d
00000090: f435 443d f1f5 58bd e079 8bbc 74db 1a3d
000000a0: e447 34bd 9002 9bbd 0406 70bd 3ae3 49bd
000000b0: a043 313c ac52 1a3d f5a3 b4bd c0e0 b93b
000000c0: dcb9 433d 4042 10bb a483 8a3d 8cde 203d
000000d0: 09ad 81bd f091 00bd 4607 a63d 0000 a4b5
000000e0: 30c3 873d 6a94 a63d 6c1d 163d b161 1cbd
000000f0: 202a 75bd e87e cfbc 8478 a9bc bc48 ae3d
00000100: 08d7 913d d8b9 89bd 708f 82bd 5a47 053d
00000110: c494 ab3d b085 22bc d810 2c3c 506b a6bb
00000120: 6828 263d 2327 68bd 10b9 623d af02 9ebd
00000130: f04c 0ebc 5483 1f3d bac3 a43d 2159 05bd
00000140: e89f 693d 0c1a df3c 30d7 42bd d9f3 a5bd

fc3.weight f4 [10, 84]
-0.08263691 0.05904559 0.070502125 0.042226635 0.010325901 -0.019090421 -0.06965646 -0.088486835
-0.061948672 -0.02993133 0.108497076 0.09474515 0.010716461 -0.07669037 -0.083362505 -0.010465063
-0.026145063 0.06287112 -0.0173572 0.10302893 0.09316187 -0.06532779 0.065212645 -0.013235398
-0.013427727 -0.0034974217 0.0635409 0.07126703 0.087524585 -0.060034577 -0.08310627 -0.092924625
-0.04695689 0.02112963 0.06954893 0.060063146 0.050538667 -0.09003061 -0.082651295 -0.071808726
-0.030226752 0.04857657 0.07825545 -0.0036622956 0.07811292 -0.070705846 -0.088910624 -0.00775069
-0.10140896 -0.03537818 0.003791988 0.074028306 -0.030648053 -0.08202703 0.09468257 0.069884874
0.013298646 -0.10490697 0.0560705 0.0022980422 0.0041734427 0.033219524 0.043814905 -0.096249335
0.046677448 -0.062113322 -0.0028166994 -0.09089179 0.010107204 -0.06656925 0.01157099 -0.09632997
0.0003933683 0.07893776 0.025131486 -0.08395181 0.037876822 0.046021096 0.08915726 -0.0045171604
-0.042507835 0.007940285 -0.020281829 -0.07279797 0.09554284 -0.07945898 -0.02278155 0.0065524355
0.10778516 -0.08303454 -0.069982395 0.06595837 -0.07048631 0.0662668 -0.04273761 0.030206643
-0.025580853 0.102184884 -0.07476796 -0.011985205 0.08092528 0.1032924 -0.04929763 0.08160237
0.03462056 -0.059956964 -0.02211909 0.06945633 -0.035490952 -0.10490838 -0.012375489 -0.08825628
0.091079436 0.013731107 -0.044030167 0.05189822 -0.08163774 -0.0018959641 0.034594618 0.08845491
-0.048823923 -0.08202335 -0.0789926 -0.051547498 -0.06532003 -0.08975132 -0.07709691 -0.031213209
-0.00095038116 0.06224004 0.037355743 -0.073170245 0.04103186 0.037288584 0.09530737 0.053404458
0.02039244 -0.10856663 -0.090587094 -0.09223886 0.047904454 -0.06722423 -0.029566653 -0.06571643
-0.022921406 0.10595309 -0.0963628 -0.032077797 0.06822119 -0.044794664 -0.022669211 -0.07904433
0.013389476 -0.10017763 0.003644079 0.010133505 0.013533406 0.0019207299 -0.020364061 -0.008154742
0.062603764 0.027781196 -0.017955989 0.09650215 0.021531157 0.03426928 0.101634674 0.098826535
-0.07255881 -0.09260194 0.07475283 -0.10544732 -0.072056815 -0.047233675 0.10666742 -0.01114364
-0.035672076 0.08694167 0.039194442 0.08609875 -0.094795145 0.008187041 0.0071650296 0.09032143
0.097027816 0.018208377 0.010574609 -0.004197903 0.040842615 0.056135066 -0.09387417 -0.06280424
-0.057031058 -0.026284598 0.07753972 0.0457739 -0.0058279857 0.08001997 -0.030964434 0.06293083
-0.05827633 0.02580475 -0.050133724 0.090821065 -0.10817184 0.0760059 0.041305922 0.08053545
-0.08084365 0.09519953 -0.04038091 0.021889545 -0.0778223 -0.08541269 -0.0030962676 -0.02853702
-0.018614724 -0.025229365 0.08248972 -0.059944022 -0.10137276 0.0893423 0.067128725 0.0052724257
-0.002255559 0.08268785 0.010894433 -0.09631594 -0.10779828 0.03401359 -0.042039633 0.054951034
0.062006973 -0.08874094 0.10386347 0.05879835 -0.10538198 0.005710073 -0.010542028 -0.076988444
0.007384844 -0.058726273 -0.03077276 0.00016413629 0.07223258 -0.08099717 -0.10282575 0.059938245
-0.05362428 -0.05839854 0.10826095 -0.09227523 0.07316876 -0.03822224 0.072631694 0.10403635
00000000: 8a3d a9bd cad9 713d 6b63 903d d6f5 2c3d
00000010: f82d 293c 8463 9cbc 0ca8 8ebd 9638 b5bd
00000020: e4bd 7dbd 8c32 f5bc b733 de3d bf09 c23d
00000030: 1894 2f3c d70f 9dbd f6b9 aabd a875 2bbc
00000040: 2c2e d6bc 93c2 803d b030 8ebc d500 d33d
00000050: a7cb be3d 94ca 85bd 358e 853d 48d9 58bc
00000060: f8ff 5bbc 0035 65bb bb21 823d 73f4 913d
00000070: 1740 b33d d1e6 75bd 9f33 aabd 444f bebd
00000080: de55 40bd 0c18 ad3c ab6f 8e3d c604 763d
00000090: a201 4f3d f861 b8bd 1545 a9bd 7410 93bd
000000a0: 189e f7bc 3af8 463d 6544 a03d 2003 70bb
000000b0: abf9 9f3d 3ace 90bd c616 b6bd 80f9 fdbb
000000c0: 80af cfbd b6e8 10bd 0083 783b 279c 973d
000000d0: a011 fbbc cafd a7bd efe8 c13d cd1f 8f3d
000000e0: 90e2 593c 77d9 d6bd 2eaa 653d c09a 163b
000000f0: 60c1 883b 3211 083d 4277 333d 5f1e c5bd
00000100: da30 3f3d 8a6a 7ebd 6098 38bb 7a25 babd
00000110: b098 253c 7555 88bd 4094 3d3c a648 c5bd
00000120: 003d ce39 1faa a13d 8ce0 cd3c edee abbd
00000130: ba24 1b3d 9e80 3c3d 1598 b63d b004 94bb
00000140: b21c 2ebd f817 023c 1426 a6bc 1a17 95bd
00000150: f7ab c33d 64bb a2bd 60a0 babc d0b5 d63b
00000160: 77be dc3d 030e aabd ee52 8fbd 2f15 873d
00000170: 205b 90bd e3b6 873d a20d 2fbd ec73 f73c
00000180: f08e d1bc 4f46 d13d f21f 99bd 985d 44bc
00000190: 27bc a53d f78a d33d 50ec 49bd 251f a73d
000001a0: 4ace 0d3d 6f95 75bd 1833 b5bc 1f3f 8e3d
000001b0: f65e 11bd 34da d6bd 90c2 4abc b5bf b4bd
000001c0: db87 ba3d 70f8 603c fa58 34bd 3a93 543d
000001d0: b031 a7bd 0082 f8ba 16b3 0d3d d927 b53d
000001e0: 98fb 47bd dcfb a7bd dfc6 a1bd 7823 53bd
000001f0: 82c6 85bd 8acf b7bd fce4 9dbd d8b2 ffbc
00000200: 0023 79ba 6aef 7e3d 5602 193d 48da 95bd
00000210: 0611 283d eabb 183d 8330 c33d a2be 5a3d
00000220: 0c0e a73c 2e58 debd ba85 b9bd bae7 bcbd
00000230: 7637 443d dbac 89bd c435 f2bc 5696 86bd
00000240: acc5 bbbc effd d83d dc59 c5bd 0264 03bd
00000250: 8db7 8b3d 9c7a 37bd c8b4 b9bc fee1 a1bd
00000260: 885f 5b3c ee29 cdbd 80d1 6e3b 0007 263c
00000270: 38bb 5d3c 00c1 fb3a 88d2 a6bc 789b 05bc
00000280: 6736 803d 6495 e33c 7018 93bc eba2 c53d
00000290: 1c62 b03c f25d 0c3d d725 d03d 9165 ca3d
000002a0: b799 94bd 16a6 bdbd 0318 993d c4f4 d7bd
000002b0: 8692 93bd 1978 41bd 7374 da3d d093 36bc
000002c0: e21c 12bd 790e b23d 5a8a 203d 8b54 b03d
000002d0: f523 c2bd f022 063c a0c8 ea3b 71fa b83d
000002e0: 85b6 c63d bc29 953c 2041 2d3c 908e 89bb
000002f0: 964a 273d e2ed 653d 1a41 c0bd 829f 80bd
00000300: 6699 69bd cc52 d7bc 25cd 9e3d 6a7d 3b3d
00000310: b0f8 bebb 83e1 a33d 20a9 fdbc e1e1 803d
00000320: 29b3 6ebd 7c64 d33c 0559 4dbd 6500 ba3d
00000330: 3389 ddbd fba8 9b3d 6630 293d c5ef a43d
00000340: 5b91 a5bd f9f7 c23d 7466 25bd b451 b33c
00000350: 4c61 9fbd d9ec aebd c0ea 4abb 78c6 e9bc
00000360: e87d 98bc d0ad cebc 5ff0 a83d dd87 75bd
00000370: 869c cfbd 19f9 b63d c97a 893d 50c4 ac3b
00000380: 00d2 13bb 3f58 a93d 907e 323c 4b41 c5bd
00000390: 58c5 dcbd d651 0b3d c031 2cbd 5614 613d
000003a0: 06fb 7d3d cfbd b5bd 5fb6 d43d 8ad6 703d
000003b0: 82d2 d7bd 901b bb3b 78b8 2cbc 1eac 9dbd
000003c0: 90fc f13b f68a 70bd 2817 fcbc 001c 2c39
000003d0: adee 933d d8e1 a5bd 4f96 d2bd ce81 753d
000003e0: 22a5 5bbd 4f33 6fbd ebb7 dd3d ccfa bcbd
000003f0: 81d9 953d ec8e 1cbd edbf 943d 0311 d53d

fc3.bias f4 [10]
-0.0704959 0.0918329 0.09184947 -0.022787899 0.024273716 0.0678015 0.077375166 -0.005329147
-0.019652024 -0.01777871
00000000: 2860 90bd e312 bc3d 931b bc3d b0ad babc
00000010: acd9 c63c 83db 8a3d df76 9e3d 20a0 aebb
00000020: 48fd a0bc a8a4 91bc
